Curriculum Learning/XP/gridworld-v0/Iterative Goal Sampling/save_3000.pth (torch, 169943 bytes, 6 tensors)

0.weight f4 [200, 4]
0	0x3e3b8a5a	0.18314496
1	0x3e1ba305	0.15198906
2	0x3edd24fa	0.43192273
3	0xbd1a3640	-0.037649393
4	0x3f01069e	0.5040072
5	0xbef386d5	-0.47563806
6	0x3e0de5c1	0.13857175
7	0xbe992fcc	-0.2991928
8	0xbf37f37c	-0.718559
9	0xbe8a455d	-0.27006045
10	0x3f1b6b58	0.6071067
11	0x3e7a6cd6	0.2445558
12	0x3f282325	0.65678626
13	0xbefe4bb2	-0.49667126
14	0x3e926fa3	0.28600797
15	0xbefe2eee	-0.4964518
16	0x3e9cb070	0.3060336
17	0x3e23afdc	0.15985054
18	0x3ebfd794	0.3746916
19	0xbefec8c0	-0.49762535
20	0xbded6379	-0.115912385
21	0x3ea33d88	0.31882882
22	0x3e51e4ba	0.20497409
23	0xbf015578	-0.5052104
24	0x3f427300	0.75956726
25	0xbea8738a	-0.3290065
26	0xbcd8534e	-0.02640691
27	0x3ecea9ca	0.40363914
28	0xbeb3d48b	-0.35123095
29	0xbd5064e2	-0.05087746
30	0xbf8122c2	-1.0088732
31	0x3ed6169f	0.41814134
32	0x3eb30fda	0.3497303
33	0xbdc508bf	-0.09620809
34	0x3e1fb25f	0.15595387
35	0x3e3028b2	0.17203024
36	0x3e78b87b	0.24289124
37	0x3e22a3ff	0.15882872
38	0x3dc313f0	0.09525287
39	0x3e0f1920	0.13974428
40	0xbe0572c1	-0.13032056
41	0xbe226486	-0.15858659
42	0x3ccb81e2	0.024842206
43	0xbbfb6118	-0.0076714866
44	0xbeec033c	-0.46096218
45	0x3e597744	0.21236902
46	0x3f073655	0.5281728
47	0xbeee9592	-0.46598488
48	0x3c3e0bd3	0.011599499
49	0xbdaab0f4	-0.083345324
50	0x3e0add21	0.13560916
51	0xbe506d61	-0.20354225
52	0xbd4083a3	-0.04700054
53	0xbd35465a	-0.044256546
54	0xbe2f4351	-0.17115523
55	0x3ecb5207	0.3971102
56	0x3ec8aa9c	0.39192665
57	0xbdc57dc7	-0.09643131
58	0x3e50ac40	0.20378208
59	0xbf18514b	-0.59499043
60	0xbd3cbc27	-0.046077874
61	0x3cc2e360	0.023790061
62	0xbde127e5	-0.109939374
63	0xbe24c3f9	-0.16090383
64	0x3d35618c	0.04428248
65	0x3e6a317c	0.2287044
66	0x3eb63d08	0.35593438
67	0xbf0063c3	-0.50152224
68	0xbf2cac95	-0.6745084
69	0xbe314ed6	-0.1731523
70	0x3e29455a	0.16530362
71	0xbea45665	-0.32097164
72	0x3f283704	0.6570895
73	0xbe14d069	-0.14532627
74	0x3de4c662	0.11170651
75	0xbd83f3e1	-0.064430006
76	0x3e2a7525	0.1664625
77	0x3e07f8be	0.13278481
78	0xbda67a2c	-0.08128771
79	0xbde4fd23	-0.111810945
80	0xbeaf0d52	-0.3418985
81	0xbe27cca5	-0.1638666
82	0xbe2502c4	-0.16114336
83	0xbe18c67e	-0.14919469
84	0xbf0c802b	-0.5488307
85	0xbf64b68b	-0.8934104
86	0xbeb12ff6	-0.34606904
87	0x3edb5b46	0.42843074
88	0x3f0d8e93	0.55295676
89	0x3eb98769	0.36236122
90	0xbf122482	-0.57086957
91	0xbed50ee1	-0.41612914
92	0xbede632b	-0.43435034
93	0x3dfc319d	0.123141505
94	0x3d64bd8c	0.05584483
95	0x3dc2deaa	0.09515126
96	0x3d46e792	0.048560686
97	0x3e940de7	0.28916857
98	0x3e69eba9	0.22843803
99	0xbd74b856	-0.05974611
100	0x3ebfd4f7	0.37467167
101	0xbf1e9a1b	-0.61953896
102	0x3ea06a0f	0.31330916
103	0x3d9ca275	0.07648174
104	0x3ec006eb	0.37505278
105	0xbf078d3e	-0.52949893
106	0x3cdb6717	0.026782556
107	0x3da6e5d2	0.081493035
108	0xbdd56027	-0.1041873
109	0x3e5eb72e	0.21749565
110	0xbe9a9c89	-0.30197552
111	0xbdf2350f	-0.118265264
112	0x3f009566	0.50227964
113	0xbcc1f73f	-0.023677466
114	0x3f004c21	0.50116163
115	0xbe810caf	-0.2520499
116	0x3e83c26e	0.25734276
117	0xbedf5272	-0.43617588
118	0x3eba6266	0.36403197
119	0x3e87f64c	0.26555097
120	0xbea4590d	-0.3209919
121	0x3ec6f18e	0.38856167
122	0xbe4b9030	-0.19879222
123	0xbe02ce73	-0.12774067
124	0x3f3bbf42	0.7333871
125	0xbe9df985	-0.3085443
126	0x3d1f7fda	0.038940288
127	0x3db70f28	0.08938438
128	0x3e80dd6b	0.25168929
129	0xbe86b025	-0.26306263
130	0x3e443483	0.19160657
131	0x3d966694	0.07343784
132	0x3ef1e102	0.4724198
133	0xbedcaa42	-0.43098646
134	0x3ebe0cf4	0.37119257
135	0xbd89462e	-0.06702839
136	0x3e72565b	0.23665754
137	0x3ede6365	0.43435207
138	0x3f1f6835	0.6226838
139	0xbedf4646	-0.43608302
140	0x3f222900	0.6334381
141	0x3f995468	1.1978884
142	0x3f0bbd7d	0.5458601
143	0x3fa1df34	1.2646241
144	0xbe5e8f2a	-0.217343
145	0x3fac37e5	1.3454558
146	0x3e3d0667	0.18459474
147	0x3e383e5b	0.17992537
148	0xbf308d57	-0.6896567
149	0xbe87083a	-0.26373464
150	0x3ec11096	0.37707967
151	0xbec343ba	-0.3813761
152	0xbf33750c	-0.70100474
153	0x3e5dfc04	0.21678168
154	0xbddee367	-0.10883217
155	0xbeb4f3d4	-0.35342276
156	0xbf8561ca	-1.0420468
157	0xbd8bfe8f	-0.068356626
158	0xbe9450a3	-0.2896777
159	0x3ea25334	0.31704104
160	0xbd432c43	-0.047649633
161	0x3dce085a	0.10060187
162	0xbe272d76	-0.16325936
163	0xbe4d8676	-0.20070824
164	0xbec6168f	-0.38689086
165	0x3e260224	0.16211754
166	0xbde63394	-0.112403065
167	0x3f12129a	0.57059634
168	0x3df7587b	0.12077423
169	0xbd4fddfd	-0.050748814
170	0x3dccbcf5	0.09996978
171	0x3df47fe0	0.11938453
172	0x3ef55a32	0.47920376
173	0xbedb482e	-0.42828506
174	0xbd87edd2	-0.066371575
175	0x3edf7091	0.4364057
176	0x3cb846f3	0.022494769
177	0xbe6391b9	-0.22223558
178	0x3d24a69f	0.040197965
179	0x3ef7b6ac	0.48381555
180	0x3e905701	0.2819138
181	0xbe0e6fc5	-0.13909824
182	0xbdc62919	-0.096758075
183	0x3f2a98d6	0.6663946
184	0xbef6ce6f	-0.4820437
185	0xbf08bb58	-0.53410864
186	0x3e7d90d8	0.24762285
187	0x3ee8aeb9	0.45445803
188	0xbf17c7ee	-0.59289443
189	0xbdc44885	-0.095841445
190	0x3e5f3b4f	0.21799968
191	0x3edd09ee	0.43171638
192	0x3e27c486	0.16383561
193	0x3d707de0	0.058713794
194	0xbef4b0fc	-0.47791278
195	0x3f1a130d	0.6018532
196	0x3ed83866	0.4223053
197	0xbf09046e	-0.53522384
198	0xbe754ff7	-0.23956285
199	0xbf43a226	-0.76419294
200	0x3e6c84d9	0.23097552
201	0x3efac50a	0.48978454
202	0xbed1feab	-0.4101461
203	0xbde9be7a	-0.11413284
204	0xbe390283	-0.18067364
205	0xbedf3660	-0.43596172
206	0x3f073745	0.5281871
207	0x3e613445	0.21992595
208	0xbeef2ca3	-0.46713743
209	0x3e4d70f6	0.20062622
210	0x3ee85110	0.45374346
211	0xbee724f2	-0.45145375
212	0x3ea6d270	0.32582426
213	0xbee23881	-0.44183734
214	0xbd7d2ad2	-0.061808415
215	0x3d604c17	0.054760065
216	0x3e96c496	0.29446858
217	0xbec1e855	-0.37872568
218	0xbdf3e0cf	-0.11908113
219	0x3c8f8489	0.017519252
220	0x3f48e746	0.78477895
221	0xbe171639	-0.14754571
222	0x3ced34dc	0.02895587
223	0xbe6224d4	-0.22084361
224	0x3dcc0a5a	0.09962912
225	0x3df42247	0.119206004
226	0xbd183424	-0.0371591
227	0xba714ad8	-0.0009204573
228	0x3c6fd550	0.01463826
229	0xbbef7a40	-0.0073082745
230	0x3d8e74a9	0.06955845
231	0xbd41440f	-0.047184046
232	0xbeecf41c	-0.4627999
233	0x3e975852	0.2955957
234	0x3ef4218a	0.47681838
235	0xbe954b03	-0.29158792
236	0x3f00b22c	0.5027187
237	0x3ec755ce	0.3893265
238	0xbeb04c35	-0.3443314
239	0xbec46e04	-0.38365185
240	0x3d9e6e5e	0.077358946
241	0xbee89fd7	-0.45434448
242	0x3e1bb9d7	0.15207611
243	0x3efb0803	0.4902955
244	0xbcd4e217	-0.025986714
245	0xbdce9fb4	-0.10089055
246	0x3edd25a0	0.43192768
247	0xbe10e27c	-0.14148897
248	0x3e80f617	0.25187752
249	0x3e35bedc	0.17748588
250	0x3e153b2f	0.14573358
251	0xbdefdae3	-0.11711671
252	0xbe4df97f	-0.20114706
253	0x3f7a9c21	0.97894484
254	0xbe7dec6e	-0.24797222
255	0x3e3ccfa6	0.18438587

0.bias f4 [200]
0	0xbf3b90b8	-0.732677
1	0x3f23311b	0.63746804
2	0x3ec587ad	0.38580075
3	0x3ee40ab3	0.44539413
4	0x3f39dbf2	0.72601235
5	0x3e012154	0.1261037
6	0x3eabe81a	0.33575517
7	0xbeda1b4a	-0.42598945
8	0xbf1389d9	-0.57632214
9	0xbde3ee1d	-0.11129401
10	0x3f888f78	1.0668783
11	0x3f07056e	0.5274266
12	0x3ede2c2d	0.43393078
13	0xbf9ee152	-1.2412512
14	0xbed83946	-0.42231196
15	0x3f66e2ca	0.901898
16	0x3e157dc9	0.14598764
17	0xbe26996a	-0.1626946
18	0x3ef795f4	0.48356593
19	0xbe94a324	-0.29030716
20	0x3e327990	0.17429185
21	0xbea65134	-0.32483828
22	0x3daf235a	0.08551665
23	0xbf4f5956	-0.8099569
24	0xbfb89dec	-1.4423194
25	0x3e4f0792	0.20217732
26	0x3f9a2093	1.2041191
27	0xbebdcca1	-0.37070182
28	0xbe665e41	-0.22496893
29	0x3e212a23	0.1573873
30	0x3ea18bb9	0.31551912
31	0x3f289035	0.6584504
32	0xbe9a137a	-0.30092984
33	0xbda32d5b	-0.07967635
34	0x3ecb4afa	0.3970564
35	0x3f37c8ca	0.71790755
36	0xbf3c5b9a	-0.7357727
37	0x3ecb4dfa	0.3970793
38	0x3e840b81	0.25790027
39	0xbeab29f4	-0.33430445
40	0x3f3bd77d	0.73375684
41	0x3e44a728	0.1920439
42	0xbece00f3	-0.402351
43	0x3f02be06	0.510712
44	0xbf1af16a	-0.6052462
45	0x3f323425	0.69610816
46	0x3d8da249	0.06915719
47	0xbf8e3d97	-1.1112546
48	0x3f0a452c	0.540118
49	0xbee5bcfa	-0.4487074
50	0xbedfc533	-0.4370514
51	0x3f13b883	0.5770342
52	0x3f21de03	0.6322939
53	0x3fb463e7	1.4092988
54	0x3fc701cb	1.5547422
55	0x3f175ec6	0.5912899
56	0xbf128af1	-0.5724326
57	0xbe11572c	-0.1419341
58	0x3ef6c0d8	0.48194003
59	0xbea777ec	-0.3270868
60	0x3f31d7ed	0.694701
61	0x3f664fc8	0.89965487
62	0xbf3f9adb	-0.74845666
63	0x3edd4a97	0.4322097
64	0xbf3d29dd	-0.73892003
65	0xbe9c858b	-0.30570635
66	0xbec58b3a	-0.38582784
67	0x3ee19aa3	0.4406329
68	0x3f5a9961	0.8539029
69	0x3f2c8fb4	0.67406774
70	0xbebb4c65	-0.36581722
71	0x3eaefa66	0.34175414
72	0x3f735681	0.9505387
73	0x3fa12084	1.2588048
74	0xbd4b781b	-0.04967509
75	0x3edf02ce	0.43556827
76	0x3ea0bf25	0.31395832
77	0xbf884e53	-1.0648903
78	0x3e260bac	0.1621539
79	0xbd9b3e8b	-0.075802885
80	0xbf25f9f4	-0.64834523
81	0xbf906643	-1.1281208
82	0xbe823916	-0.25434178
83	0x3e3d32bb	0.18476383
84	0xbf8ed0b1	-1.1157438
85	0x3ecf84f1	0.40531114
86	0xbf0b4578	-0.54402876
87	0xbe0ca6e6	-0.13735542
88	0xbdeaf24a	-0.11471994
89	0xbef65272	-0.48109776
90	0xbf0400f6	-0.51563966
91	0xbccb7717	-0.02483706
92	0xbf7a47cd	-0.9776581
93	0x3eebbae7	0.46041033
94	0xbf771927	-0.96522754
95	0xbe511530	-0.20418239
96	0xbe08e0b1	-0.13366963
97	0xbf6db065	-0.9284728
98	0xbf41f679	-0.7576671
99	0x3f059682	0.5218278
100	0x3f129740	0.5726204
101	0xbc16c4a2	-0.009202154
102	0xbdaeb473	-0.08530512
103	0x3fbccf96	1.475085
104	0xbebbf526	-0.3671047
105	0xbef726c8	-0.48271775
106	0x3f3ba7dc	0.7330301
107	0x3f7f7da4	0.9980109
108	0xbd87479a	-0.06605454
109	0xbf795864	-0.974005
110	0x3f57a49e	0.8423556
111	0x3effa7d3	0.49932727
112	0xbe83a867	-0.25714418
113	0xbd0bf840	-0.034172297
114	0xbddc24be	-0.107491955
115	0xbf1be156	-0.6089071
116	0xbe5fdbc5	-0.21861179
117	0x3dd7395f	0.105089895
118	0xbebf54f6	-0.37369508
119	0xbf39521b	-0.7239091
120	0x3dee29dd	0.116290785
121	0xbd05537c	-0.03255032
122	0xbed0251c	-0.40653312
123	0xbf220039	-0.6328159
124	0xbf8b8e6a	-1.0902836
125	0xbe840c66	-0.2579071
126	0xbd9f3a62	-0.077748075
127	0xbc17da84	-0.009268407
128	0xbf1a00a4	-0.6015723
129	0xbf718682	-0.9434587
130	0x3b8b76f8	0.0042561255
131	0xbf2ee8d3	-0.6832401
132	0x3f9dddd7	1.2333325
133	0xbeb4d6d4	-0.3532015
134	0xbb7beb56	-0.0038439832
135	0xbe66ff99	-0.2255844
136	0xbf5f6e06	-0.8727726
137	0xbc9005b0	-0.017580837
138	0x3f58fab9	0.8475757
139	0xbe1c25b6	-0.1524876
140	0xbec41978	-0.3830068
141	0xbf06d541	-0.5266915
142	0xbf95abc3	-1.1693043
143	0x3e0738c7	0.13205253
144	0x3e0210c5	0.1270171
145	0x3e9b504f	0.30334708
146	0x3dd59ff6	0.10430901
147	0xbf25d7ef	-0.64782614
148	0xbd72aab7	-0.059244838
149	0xbe7017ef	-0.2344663
150	0xbeba10c7	-0.36340925
151	0xbe6ddd34	-0.23228914
152	0x3ec798dd	0.38983813
153	0x3e0c598c	0.13706034
154	0xbf3c162e	-0.73471344
155	0x3f883191	1.0640126
156	0xbe46e09a	-0.19421616
157	0x3bf37f59	0.0074309525
158	0x3f40170b	0.7503516
159	0xbf4b2e6b	-0.79367703
160	0x3f2011da	0.6252724
161	0x3f5dd04e	0.8664597
162	0x3f80b407	1.005494
163	0xbebc0a36	-0.3672654
164	0x3f71c98d	0.9444817
165	0x3ee0fc4e	0.43942493
166	0x3d8128ca	0.06306608
167	0xbf1968f5	-0.59925777
168	0x3f4f86fd	0.8106535
169	0x3eb256c5	0.34831825
170	0x3f03ec59	0.5153251
171	0x3f6aa3f4	0.9165642
172	0xbe798d75	-0.24370368
173	0xbf9d9c07	-1.2313241
174	0xbf0daa8b	-0.5533835
175	0x3f700509	0.93757683
176	0x3f644d00	0.8917999
177	0xbf801a0a	-1.0007946
178	0x3f724d78	0.9464946
179	0xbf575165	-0.84108573
180	0xbf540012	-0.8281261
181	0xbef57e10	-0.4794774
182	0x3f8fdfae	1.1240137
183	0xbf821035	-1.0161196
184	0xbe8a86f8	-0.27056098
185	0xbf7e9286	-0.9944233
186	0x3f733d08	0.95015
187	0x3f678b97	0.9044737
188	0xbf473cc0	-0.7782707
189	0x3f260e22	0.64865315
190	0x3f47484d	0.778447
191	0xbf3d46d3	-0.73936194
192	0xbf3ab1f5	-0.7292779
193	0x3e9a512f	0.30140063
194	0xbecf072b	-0.40435156
195	0x3f42ec9d	0.76142293
196	0x3de09c2b	0.10967287
197	0x3eb1a27c	0.34694278
198	0xbe6cb256	-0.23114905
199	0x3e8bca19	0.27302626

2.weight f4 [200, 200]
0	0xbc832afd	-0.01601171
1	0x3d086c34	0.033306316
2	0x3d8326fb	0.06403919
3	0xbcd65d0a	-0.026167411
4	0xbe12c0c1	-0.14331342
5	0x3e18235c	0.14857239
6	0x3d0acefb	0.0338888
7	0x3dad2539	0.08454365
8	0x3da28253	0.079350136
9	0x3d41b4f8	0.047291726
10	0x3e26e06f	0.16296552
11	0x3d6fbb68	0.058528334
12	0x3d1da522	0.03848756
13	0xbe0d905a	-0.13824597
14	0x3e0b83b5	0.13624461
15	0x3dc62cc8	0.0967651
16	0xbdd25849	-0.10270745
17	0xbcb4c983	-0.022068745
18	0x3dbd582c	0.09245333
19	0x3c47ac51	0.0121870795
20	0x3d03a839	0.03214285
21	0xbd936bc1	-0.07198287
22	0x3d523245	0.051317472
23	0x3d481826	0.048851155
24	0xbe3dda8f	-0.18540405
25	0x3e6f897c	0.2339229
26	0x3ec95e49	0.39329746
27	0xbc0d0a33	-0.008608389
28	0xbca8ee8c	-0.02062156
29	0x3e4e8dac	0.20171231
30	0xbe2aff13	-0.16698866
31	0x3e6b8ac2	0.2300215
32	0x3dffb5d3	0.12485852
33	0x3e3c25f9	0.1837386
34	0xbdae7cb6	-0.085198805
35	0xbce9cf81	-0.028541328
36	0xbcc52215	-0.024064103
37	0xbd4dcea1	-0.050245885
38	0xbcab6e33	-0.02092657
39	0xbda4638c	-0.080267996
40	0xbb95b441	-0.004568607
41	0xbdf360f7	-0.11883729
42	0x3caedcbc	0.021345489
43	0x3db4807c	0.08813569
44	0xbe4da52f	-0.20082544
45	0xbd2169bb	-0.039407473
46	0x39ed7b1f	0.00045295895
47	0x3d800b49	0.062521525
48	0xbcba6e13	-0.022757566
49	0xbcc34012	-0.023834262
50	0xbd9df33d	-0.0771241
51	0x3e850150	0.25977564
52	0xbd2e0d29	-0.04249302
53	0x3e91ba55	0.28462473
54	0x3e24a717	0.16079365
55	0xbdee55b3	-0.116374396
56	0xbe0c9882	-0.13730052
57	0x3dbcd323	0.09219959
58	0xbeadb816	-0.3392951
59	0xbdf20fed	-0.11819444
60	0xbdcda7a8	-0.100417435
61	0x3dd2bf5c	0.10290405
62	0xbdcf1340	-0.101110935
63	0x3e1a58bd	0.15072913
64	0xbd8cba57	-0.06871479
65	0xbdc0abea	-0.0940779
66	0xbdbe1c63	-0.09282758
67	0xbdc1fe93	-0.09472384
68	0x3e169cc2	0.14708236
69	0xbe123d48	-0.1428119
70	0xbcb9cc5f	-0.02268046
71	0x3e277a78	0.16355312
72	0x3e157890	0.14596772
73	0x3e484779	0.19558515
74	0xbddefd62	-0.10888173
75	0x3e21f8ec	0.15817612
76	0x3dcd13fa	0.10013576
77	0xbdb2f6db	-0.0873849
78	0xbc3ee561	-0.011651368
79	0x3cdc825e	0.026917633
80	0xbad8dbf6	-0.0016545046
81	0xbdf7c83d	-0.12098739
82	0x3b4ce741	0.0031265768
83	0x3df4e5be	0.11957882
84	0x3d33772d	0.043814827
85	0x3da1da4c	0.07902965
86	0xbcbb6bce	-0.022878554
87	0x3dd10224	0.102054864
88	0xbd58b891	-0.05291039
89	0xbd9bf696	-0.07615392
90	0x3d200c7d	0.03907441
91	0x3dcbe465	0.09955672
92	0x3c9ed14f	0.019386915
93	0x3d33318c	0.043748423
94	0xbdab722b	-0.08371385
95	0xbdc8d602	-0.09806444
96	0x3e38a9cf	0.18033527
97	0xbcdd2f22	-0.027000014
98	0x3d335977	0.043786492
99	0x3cc02165	0.023453424
100	0xbdc7fa64	-0.09764555
101	0x3e4a2f80	0.19744682
102	0xbc3d8a0c	-0.0115685575
103	0x3e910918	0.2832725
104	0xbd865a8f	-0.065602414
105	0xbdfa1d78	-0.12212652
106	0x3e291e21	0.165154
107	0x3d199507	0.03749564
108	0xbd0c583b	-0.03426383
109	0xbe294856	-0.165315
110	0xbc8bcb7c	-0.017064802
111	0x3d2e1eb4	0.04250975
112	0x3df4bef0	0.11950481
113	0x3d8bda2b	0.068287216
114	0xbe7e8eb4	-0.24859124
115	0xbdbf6335	-0.09345094
116	0xbcfe5eba	-0.031051029
117	0xbe1bd332	-0.15217283
118	0x3cb63815	0.022243539
119	0xbe35348e	-0.1769583
120	0x3dd4f179	0.1039762
121	0x3df7da12	0.121021405
122	0x3c85f183	0.016350513
123	0xbe168aab	-0.14701335
124	0xbe38169f	-0.1797738
125	0xbe4178dd	-0.18893762
126	0x3e6ce1fd	0.23133083
127	0x3df29221	0.11844278
128	0x3bd251ad	0.006418428
129	0x3b4fe87d	0.0031724267
130	0xbde06689	-0.10957057
131	0xbe74e8b0	-0.23916888
132	0x3e1605ab	0.146506
133	0x3df431f5	0.11923591
134	0x3d1f9370	0.038958967
135	0x3c7ea11e	0.015541343
136	0xbde0f24e	-0.10983716
137	0x3c52d9b8	0.012869291
138	0x3d0f2c40	0.03495431
139	0xbd382239	-0.044954512
140	0xbcee4c92	-0.029089246
141	0x3cb2cff3	0.021827674
142	0xbeb520ae	-0.35376495
143	0x3dae1c99	0.08501548
144	0xbe10d007	-0.14141856
145	0x3cd74eca	0.026282687
146	0x3d240622	0.04004491
147	0xbcdf24fd	-0.027239317
148	0x3c7593bd	0.014988837
149	0xbdf43d6c	-0.11925778
150	0xbd8daed8	-0.069181144
151	0xbd7cc0cb	-0.0617073
152	0x3c987570	0.018610686
153	0x3ae898eb	0.0017745768
154	0xbde98dbb	-0.11403986
155	0x3e19e826	0.15029964
156	0x3db6678c	0.08906469
157	0xbc997f90	-0.018737584
158	0x3d7fafa5	0.062423367
159	0xbda5d393	-0.08096995
160	0xbdd86dea	-0.105678394
161	0x3d973c74	0.073845774
162	0x3cb2eabe	0.02184045
163	0xbdbf3662	-0.093365446
164	0x3cde2278	0.027116045
165	0x3c77d3de	0.015126197
166	0xbda274d3	-0.07932439
167	0xbd93eb29	-0.072225876
168	0x3daef201	0.08542252
169	0xbe201217	-0.156319
170	0x3e60a75d	0.21938844
171	0x3d1ce3ed	0.038303304
172	0xbcea5da3	-0.028609103
173	0xbe74ed10	-0.23918557
174	0xbe2a9407	-0.1665803
175	0xbd31e530	-0.04343146
176	0x3e0e547f	0.1389942
177	0xbe0dd823	-0.13851981
178	0x3eb6a48e	0.3567242
179	0x3d3e623a	0.046480395
180	0xbe5f9108	-0.21832669
181	0xbd385aa3	-0.045008313
182	0x3dba2ba4	0.09090355
183	0x3cf417e1	0.029796543
184	0xbd908d0c	-0.070581526
185	0xbd49b1cc	-0.049241826
186	0x3d933ad1	0.07188953
187	0xbdabea7f	-0.08394336
188	0xbd853e21	-0.06505991
189	0x3d93a056	0.07208316
190	0xbd03b16a	-0.032151617
191	0xbca9ee61	-0.02074355
192	0xbdff89c4	-0.124774486
193	0x3e107503	0.14107136
194	0xbcc56343	-0.024095183
195	0xbce16517	-0.027514024
196	0xbcc59070	-0.024116725
197	0xbe0e85dc	-0.13918251
198	0xbcc2171d	-0.023692662
199	0x3d966eb1	0.073453315
200	0xbe2d64fa	-0.16933051
201	0x3b32d9f0	0.0027290545
202	0xbdb5959e	-0.08866428
203	0xbb8bea3b	-0.004269866
204	0xbb651555	-0.0034955342
205	0xbea1e45a	-0.3161953
206	0x3d446814	0.04795082
207	0xbd363363	-0.0444826
208	0x3dd91442	0.10599567
209	0xbd21ac11	-0.039470736
210	0xbe8528e1	-0.2600775
211	0xbe3d9f71	-0.18517853
212	0xbd950b4e	-0.07277547
213	0xbd154a10	-0.036447585
214	0x3dccd01d	0.10000632
215	0xbde77303	-0.113012336
216	0xbdb09c1e	-0.08623527
217	0xbdcf4401	-0.101203926
218	0x3e1610bc	0.14654821
219	0x3e2f1fdd	0.17101999
220	0xbc8a2a11	-0.016865762
221	0xbe18c20f	-0.14917777
222	0x3b2f7daf	0.0026777794
223	0x3cbf071b	0.023318818
224	0xbd28f389	-0.04124788
225	0xbe0f1982	-0.13974574
226	0x3d9dcae2	0.077047125
227	0xbd86f5e4	-0.06589869
228	0xbd16079e	-0.036628358
229	0x3c18ce7b	0.0093265725
230	0x3e1c18b0	0.15243793
231	0xbdb45274	-0.08804789
232	0xbd5165b8	-0.051122397
233	0xbe092791	-0.13394
234	0x3e25297b	0.16129105
235	0x3d0a3626	0.033743046
236	0xbd122dea	-0.03568832
237	0xbe098071	-0.13427903
238	0x3b983cc9	0.004645918
239	0xbdf510de	-0.11966108
240	0x3ba156bc	0.0049236696
241	0x3d838f1a	0.06423779
242	0x3ddac267	0.106816106
243	0x3e21f571	0.15816285
244	0x3d2b99ed	0.041894842
245	0xbe42d8e1	-0.19028045
246	0xbcb86edd	-0.022513801
247	0x3d059cec	0.032620355
248	0x3e335a61	0.17514946
249	0xbc6016ac	-0.01367728
250	0x3e5d4783	0.21609311
251	0x3d6c2d21	0.057660226
252	0xbd362cbb	-0.044476252
253	0x3daacdee	0.08340059
254	0x3d40ec27	0.047100212
255	0x3d75344e	0.059864335

2.bias f4 [200]
0	0x3d0497ce	0.032371335
1	0x3d9c5c85	0.07634834
2	0x3d33c035	0.043884475
3	0x3d00d4e4	0.03145303
4	0xbd04d6b0	-0.032431304
5	0xbc113625	-0.008863007
6	0x3d288a62	0.041147597
7	0x3cc369f2	0.02385423
8	0xbd5965e0	-0.05307567
9	0x3b5b3d80	0.0033453405
10	0x3d464ca0	0.04841292
11	0x3c7210f8	0.0147745535
12	0x3d208fdf	0.039199706
13	0x3d3b1d8a	0.045682468
14	0xbd191b7a	-0.03737972
15	0x3dff0618	0.12452334
16	0x3d743ace	0.059626393
17	0xbc922887	-0.01784159
18	0x3d5d58f2	0.054039903
19	0xbd4b553d	-0.049641836
20	0xbd94b5a8	-0.07261211
21	0x3dd35f22	0.103208795
22	0xbd7fc22f	-0.062441047
23	0xbd08c1de	-0.03338801
24	0xbd619d10	-0.055081427
25	0xbda53f57	-0.08068722
26	0x3dc54a49	0.096333094
27	0x3dd50765	0.10401801
28	0x3db071c9	0.08615453
29	0x3c84f0ef	0.016228167
30	0x3d2e258d	0.04251628
31	0x3da2918c	0.07937917
32	0xbd387861	-0.045036677
33	0xbdab397e	-0.08360575
34	0xbe095fec	-0.13415498
35	0x3c77b086	0.01511777
36	0xbdbb2558	-0.09137982
37	0xbd30a973	-0.04313035
38	0xbd53fde8	-0.051755816
39	0xbdb60db8	-0.088893354
40	0x3b8f7b81	0.0043787365
41	0x3c8166bc	0.015796058
42	0x3d094a1b	0.033517938
43	0xbc9bdfd3	-0.019027626
44	0xbc20968d	-0.009801519
45	0x3ddd3004	0.10800174
46	0x3c92b160	0.017906845
47	0x3c460d0b	0.012088071
48	0xbc11829e	-0.008881239
49	0xbd0a1d3d	-0.03371929
50	0x3c778f73	0.015109885
51	0x3d068d14	0.032849386
52	0xbd9bb559	-0.07602949
53	0xbd8bc6e5	-0.068250455
54	0x3d2fa055	0.042877514
55	0xbd4d6957	-0.050149288
56	0x3d544d0d	0.051831294
57	0xbd099050	-0.033584893
58	0xbd782d24	-0.060589924
59	0x3cbf5ee1	0.023360671
60	0x3c72357e	0.014783261
61	0x3d62ede3	0.055402648
62	0xbcdf27d3	-0.02724067
63	0xbce91a6a	-0.028454978
64	0xbcd7e898	-0.026356027
65	0x3b177196	0.0023108474
66	0xbdeb5aae	-0.11491905
67	0xbd451158	-0.048112243
68	0x3d08ded2	0.033415623
69	0x3d5d9280	0.05409479
70	0x3d67aa96	0.056559168
71	0xbd0ba636	-0.034094058
72	0xbd9598ef	-0.073045604
73	0xbd77a4c9	-0.060459886
74	0x3d268904	0.040658012
75	0xbd44c534	-0.04803963
76	0x3d512e31	0.051069442
77	0xbd892fdd	-0.06698582
78	0x3d879729	0.066206284
79	0x3d10edc3	0.035382997
80	0xbda999ad	-0.082812645
81	0xbd911a0a	-0.07085045
82	0x3d93515b	0.07193252
83	0xbe07170f	-0.1319239
84	0x3b76a231	0.0037633295
85	0xbd79a2cf	-0.060946282
86	0xbc9940cc	-0.018707655
87	0x3d8e0efc	0.06936452
88	0x3d5cadb8	0.05387661
89	0x3bb065cc	0.005383229
90	0x3e22d175	0.15900214
91	0xbd4234d3	-0.04741366
92	0x3be590d0	0.0070057884
93	0xbdd47c0a	-0.10375221
94	0xbd068637	-0.03284284
95	0x3d87985c	0.06620857
96	0xbcb13b19	-0.021634625
97	0x3d657072	0.05601544
98	0xbc3e1da4	-0.011603747
99	0x3d871343	0.06595471
100	0xbb9dfea3	-0.004821615
101	0xbd1b11df	-0.03785884
102	0xbd1b7c14	-0.037960127
103	0x3e0765b4	0.1322239
104	0xbd3fcc68	-0.046825796
105	0xbdb8e52c	-0.09028086
106	0x3c7d4038	0.0154572055
107	0x3cedeba4	0.029043026
108	0x3da4c88e	0.08046065
109	0x3b042758	0.0020165052
110	0x3c956ccf	0.01824036
111	0xbc985ab3	-0.018597936
112	0x3bd6e180	0.0065576434
113	0x3cf48853	0.02985016
114	0x3c9edf49	0.01939358
115	0xbdab0e4c	-0.08352336
116	0x3c28e2d7	0.010307989
117	0x3d288399	0.041141126
118	0xbd00ef3d	-0.031478155
119	0x3d38d206	0.04512217
120	0xbdf81d9c	-0.121150225
121	0xbc5f2e68	-0.013621904
122	0x3d4385fb	0.047735196
123	0x39a0318f	0.00030554502
124	0x3d574109	0.052552257
125	0x3d4591ae	0.048234634
126	0xbdcea5fa	-0.10090251
127	0x3c85ebcb	0.016347786
128	0x3da1eb58	0.079062164
129	0x3be5b4fe	0.0070101013
130	0xbd139c90	-0.03603798
131	0xbd3418e6	-0.043969058
132	0x3ce9a977	0.02852319
133	0xbc62f70f	-0.013852849
134	0x3c8ebc8d	0.017423892
135	0xbd8b97a0	-0.068160295
136	0xbccd80d4	-0.025085844
137	0x3da39ee5	0.07989291
138	0xbd35f52d	-0.04442327
139	0x3d528545	0.051396627
140	0xbca0ecae	-0.019644108
141	0x3b699959	0.003564438
142	0xbdaaccca	-0.08339842
143	0x3d94be59	0.072628684
144	0x3c204dde	0.00978419
145	0x3d188034	0.03723164
146	0x3cbc55b9	0.022990094
147	0x3ca0b3a6	0.019616913
148	0x3e3b5d03	0.182972
149	0xbd686d5f	-0.05674493
150	0xbd12d178	-0.035844296
151	0xbd038a92	-0.032114573
152	0xbd451b38	-0.04812166
153	0x3d2129fb	0.039346676
154	0x3d4259fe	0.047449104
155	0xbd5e979f	-0.054343816
156	0x3d335c47	0.043789174
157	0xba1dd80c	-0.0006021268
158	0xbc173561	-0.009229035
159	0x3cb64200	0.022248268
160	0x3d1bb16d	0.038011003
161	0x3d4d7bcb	0.050166886
162	0x3ce54ec9	0.02799167
163	0xbd49afa0	-0.049239755
164	0xbc3e37c6	-0.011609977
165	0x3b2b2d63	0.0026119582
166	0xbcce59ac	-0.025189243
167	0x3db32113	0.08746543
168	0xbc8ee803	-0.017444616
169	0x3d2340f6	0.039856873
170	0xbd26c066	-0.04071083
171	0x3d384ead	0.044996906
172	0xbd55f116	-0.05223187
173	0x3d097fe7	0.033569243
174	0x3c0b9bcf	0.008521034
175	0x3cb9794a	0.022640843
176	0x3d9b74ae	0.07590614
177	0xbda0bb25	-0.07848195
178	0x3da55236	0.08072321
179	0x3ba6fb70	0.0050958917
180	0xbd2806e4	-0.041022196
181	0x3d2383be	0.03992056
182	0xbde8a23f	-0.11359071
183	0xbbbe3bb2	-0.005805456
184	0xbd3b3502	-0.04570485
185	0xbdab099f	-0.083514445
186	0xbc1e6431	-0.009667442
187	0x3c3186ce	0.010835363
188	0x3c5bb95b	0.013410891
189	0x3bf15444	0.0073647816
190	0xbd2b63a3	-0.041843068
191	0x3d4b3031	0.049606506
192	0x3d8f4b8a	0.0699683
193	0xbdcb58eb	-0.09929069
194	0x3dc94c87	0.098290496
195	0xbd30ab72	-0.043132253
196	0x3d624080	0.055237293
197	0xbc2c1e3f	-0.010505258
198	0x3dc1a5ff	0.09455489
199	0x3cc0088d	0.023441577

4.weight f4 [4, 200]
0	0xbda5a5d7	-0.08088272
1	0xbd35cc3c	-0.044384226
2	0x3d0f23b8	0.034946173
3	0xbda1d96a	-0.079027966
4	0x3da60205	0.08105854
5	0xbac9e54a	-0.0015403416
6	0xbce1f872	-0.027584288
7	0x3c0c956b	0.008580546
8	0xb9b9b13d	-0.00035418003
9	0xbd7dedf5	-0.06199451
10	0x3abc74d1	0.0014378076
11	0x3d03a936	0.032143794
12	0x38420c6b	4.626477e-05
13	0x3d1ae289	0.037813697
14	0xb943479d	-0.00018623327
15	0xbe19badd	-0.15012689
16	0x3a90593f	0.0011012926
17	0x3a828180	0.0009956807
18	0xb8bbb139	-8.949865e-05
19	0x3c7bee20	0.015376598
20	0x39acfc65	0.00032994445
21	0xbd9e92a0	-0.0774281
22	0x3b97e890	0.004635878
23	0xba4cbab9	-0.0007809806
24	0x3dcc8b42	0.09987499
25	0xbd76dbaf	-0.0602681
26	0x3dc9c160	0.098513365
27	0xbc810f4f	-0.01575437
28	0xbc96551e	-0.018351134
29	0x3a8188ef	0.0009882728
30	0xbda185ca	-0.07886846
31	0x3d9f4c6e	0.0777825
32	0xba983dfd	-0.0011615154
33	0x3d215b63	0.039393794
34	0x3e627b0a	0.22117248
35	0xbaacc274	-0.001318051
36	0x3c828276	0.01593135
37	0x39bad1a2	0.00035632873
38	0xbdbdfff2	-0.09277333
39	0xbe2096b6	-0.15682492
40	0x3e0d40c7	0.13794242
41	0xbe36847f	-0.17823981
42	0xbc8141a1	-0.015778365
43	0xbcb232a9	-0.021752672
44	0xbab621fd	-0.0013895627
45	0xbdc2a5ca	-0.09504278
46	0x3a9adc40	0.0011814907
47	0xbcfaabf4	-0.030599572
48	0xba18e846	-0.0005832951
49	0x3a662748	0.0008779657
50	0x3a400207	0.0007324521
51	0xba97e65f	-0.0011589042
52	0x3e2413fd	0.1602325
53	0x3d9b17af	0.07572877
54	0x3a70a3ab	0.0009179662
55	0x3c5f7086	0.0136376675
56	0x3a78aae3	0.00094859133
57	0x37a5cf50	1.976607e-05
58	0xbbb50962	-0.0055248
59	0xb908aa4a	-0.00013033408
60	0x3d7404c9	0.059574876
61	0x3dbaf060	0.09127879
62	0xbdc8c00a	-0.098022535
63	0x39139de3	0.0001407783
64	0x39f42c36	0.00046572246
65	0xba72b927	-0.0009259157
66	0xbe433352	-0.19062546
67	0x399c317e	0.00029791513
68	0x3c85524a	0.01627459
69	0x398cef27	0.00026881063
70	0x3d74ab2f	0.059733566
71	0xbdc363be	-0.09540509
72	0xb9051166	-0.0001269035
73	0xba05988d	-0.0005096279
74	0x3a20657a	0.0006118637
75	0xbbc4c3a9	-0.00600477
76	0x39c879e9	0.00038237803
77	0xbe124105	-0.14282615
78	0xb944de73	-0.00018774885
79	0x3d9123d1	0.070869096
80	0xbd856a57	-0.06514423
81	0xbcff81cc	-0.031189822
82	0xb9a389ac	-0.00031192356
83	0x3dd9ca46	0.10634284
84	0x3c907352	0.017633114
85	0xbd0a2d14	-0.033734396
86	0x39bad98b	0.00035638767
87	0xba6af837	-0.00089633785
88	0x39c01347	0.00036635456
89	0xbcd442ca	-0.025910754
90	0xbdb78579	-0.08961005
91	0x39a959a7	0.00032300988
92	0xba2295ac	-0.00062021124
93	0xbd091a2b	-0.03347222
94	0xb9cd8f6e	-0.0003920751
95	0x39fbdf14	0.00048040657
96	0xba0bfeb5	-0.00053403835
97	0x3a0fc967	0.00054850284
98	0x39fa03f1	0.00047686652
99	0x39858da2	0.00025473261
100	0x3db92002	0.09039308
101	0xba7aa7ba	-0.00095617364
102	0x3e25e74e	0.16201517
103	0xbd29c6ab	-0.04144923
104	0xbac2deec	-0.0014867461
105	0x3d7b8f88	0.06141618
106	0xb9959106	-0.00028527546
107	0xb9a37379	-0.00031175817
108	0x3e112d35	0.14177401
109	0x3a3f71f9	0.0007303055
110	0x3d8cd942	0.06877376
111	0x3a2e6f13	0.00066541246
112	0x3d9f8f5f	0.07791018
113	0xb998fb6b	-0.0002917902
114	0x3cb23d79	0.021757828
115	0xbdc3a229	-0.09552414
116	0xbd83deee	-0.06439005
117	0xba889cab	-0.0010422667
118	0x396f76a7	0.00022837018
119	0x3d5811f7	0.052751508
120	0xbd1b7cf1	-0.03796095
121	0xbd641ea2	-0.055693276
122	0x39f7829e	0.0004720883
123	0x3d6c11d4	0.05763419
124	0xbe088c90	-0.1333487
125	0xba70b7e4	-0.0009182675
126	0xbc91e912	-0.017811332
127	0xbac54f03	-0.0015053455
128	0x3d631d0d	0.055447627
129	0x393d22cb	0.00018037406
130	0xbda21fdf	-0.07916235
131	0xbb41c62a	-0.0029567578
132	0xba1ef888	-0.0006064256
133	0x3a03ceb4	0.00050280546
134	0xb9fde17e	-0.00048423925
135	0x3d9aff90	0.07568276
136	0xbd9207ab	-0.07130369
137	0xbb52e955	-0.0032182534
138	0x3a8d090a	0.001076014
139	0xbb285898	-0.0025687572
140	0x3c458af0	0.012057051
141	0xbcb55c65	-0.022138784
142	0x3ce2467c	0.0276215
143	0xbc1a0a86	-0.009401923
144	0xbdf0e137	-0.11761706
145	0xbd8730c9	-0.06601102
146	0x392dadff	0.00016563384
147	0x3c2694fa	0.010167355
148	0xbe1969ab	-0.14981715
149	0x3ad520f7	0.0016260435
150	0x3a1c3a05	0.00059595733
151	0x38feab98	0.00012143626
152	0xbd0a4824	-0.033760205
153	0x3dd073d2	0.10178341
154	0xbdbc211a	-0.09186001
155	0x3d57967b	0.052633744
156	0xbca04421	-0.019563736
157	0x3bd2b045	0.0064297044
158	0x3c2c6fef	0.010524734
159	0xb84aeecc	-4.838295e-05
160	0x384e9ada	4.9258444e-05
161	0xba55e042	-0.0008158722
162	0x39464eee	0.00018912155
163	0xbd3eda23	-0.04659475
164	0xbcbc2cbe	-0.022970553
165	0x3e0561d0	0.13025594
166	0x3a4670d7	0.0007569915
167	0xb8f2dee3	-0.00011580975
168	0x38712cf0	5.750073e-05
169	0x3924b5e1	0.00015708014
170	0x3d9de4c6	0.07709651
171	0xbabf10ed	-0.0014577188
172	0x391516db	0.00014218262
173	0xbd19cb2d	-0.03754728
174	0x3a1cd828	0.00059831375
175	0x3cf270ca	0.029594798
176	0xbd878883	-0.066178344
177	0x3e56111d	0.20904966
178	0x3d7d2414	0.061801985
179	0xba39d07c	-0.00070882565
180	0x3d53143d	0.051532973
181	0xbd107f0d	-0.035277415
182	0x3d4cec99	0.050030325
183	0x3a81814c	0.0009880452
184	0xb9e4b358	-0.0004362117
185	0x39a7945b	0.00031963256
186	0xbaaf66ba	-0.0013382055
187	0x39df587e	0.00042599806
188	0xbdbb64e2	-0.09150101
189	0xb7e6ae0a	-2.749918e-05
190	0x3998107a	0.00029003975
191	0x3d3a8e8f	0.04554611
192	0x3dedcde2	0.11611535
193	0x3d2e9251	0.042620007
194	0xbe3202b8	-0.1738385
195	0xba3125b1	-0.00067576306
196	0x3d94ef5a	0.07272215
197	0xbd89ae4c	-0.067226976
198	0xbcf9feac	-0.030516945
199	0x391ca6e5	0.00014939492
200	0xbe1b2de4	-0.15154225
201	0x3cc195c7	0.02363099
202	0xbb0f757b	-0.0021890092
203	0xbdc47064	-0.09591749
204	0x3df6ed23	0.12056949
205	0xb86caea6	-5.642944e-05
206	0xbd75281b	-0.0598527
207	0x3d3f4aa4	0.046702042
208	0xbaa8675f	-0.001284819
209	0x3c0dbc4a	0.008650849
210	0xb9dfa2f3	-0.0004265528
211	0x3d058666	0.032598875
212	0x399ebda1	0.00030277393
213	0x3da568cc	0.08076629
214	0xbb03c865	-0.0020108458
215	0xbdac0ef5	-0.0840129
216	0x39763c72	0.00023482906
217	0xb9fbb0fb	-0.0004800631
218	0xba660597	-0.00087746367
219	0x3ceb94f9	0.02875756
220	0xba7f6510	-0.00097425375
221	0xbc76e99f	-0.015070348
222	0xbbbe3b62	-0.005805419
223	0x3a1d7862	0.0006007013
224	0x3d804020	0.06262231
225	0xbd99598c	-0.07487783
226	0x3dfb74f8	0.122781694
227	0xbd6cfc0d	-0.05785756
228	0x3d252c85	0.04032566
229	0xbd0d0321	-0.034426812
230	0xbdea74ce	-0.1144806
231	0x3db6803f	0.0891118
232	0x39f3e6e5	0.00046520602
233	0x3d34c6ff	0.04413509
234	0x3e6d19e2	0.23154405
235	0x3a317c34	0.0006770522
236	0xbb1211a6	-0.0022288351
237	0x39741592	0.00023277689
238	0xbdc09302	-0.094030395
239	0xbdf2b55f	-0.11851
240	0x3e137a5d	0.14402147
241	0xbe0ea8ee	-0.13931629
242	0x3d4793e7	0.048725035
243	0xbd17ea12	-0.03708846
244	0x3a98f9bd	0.0011671107
245	0xbd9679b4	-0.07347432
246	0xba8e2d26	-0.0010847196
247	0xbd058769	-0.03259984
248	0x3a9d11b2	0.0011983423
249	0xb719f4c3	-9.176499e-06
250	0xb981849b	-0.00024703596
251	0x3a1e9686	0.00060496514
252	0x3e25958a	0.16170326
253	0x3d55103b	0.05201743
254	0xba046302	-0.00050501537
255	0xba2e6ab9	-0.0006653476

4.bias f4 [4]
0	0x3d051ccc	0.032498166
1	0xbda893ca	-0.082313135
2	0xbd9ee130	-0.07757795
3	0x3c0498bb	0.008093054
