Curriculum Learning/XP/gridworld-v0/Iterative Goal Sampling/save_2000.pth (torch, 169943 bytes, 6 tensors)

0.weight f4 [200, 4]
000000 87 75 25 3e 05 bc f1 3d bc fa c2 3e a2 6c 96 bd
       0.16158114 0.1180344 0.3808192 -0.07344939
000010 b6 70 f6 3e d7 d6 f2 be 98 cc e2 3d 2a 81 a4 be
       0.48132867 -0.47429535 0.110741794 -0.32129794
000020 cc eb 34 bf 21 8c 98 be c9 b1 16 3f 22 83 7c 3e
       -0.706723 -0.2979441 0.5886503 0.24659398
000030 a4 8d 20 3f d0 15 ff be b8 df 88 3e c5 f1 01 bf
       0.62716126 -0.4982133 0.26733184 -0.50759536
000040 f9 ed 85 3e f9 ff 41 3e 85 28 89 3e 51 e3 ff be
       0.2615812 0.18945302 0.26788726 -0.49978116
000050 a2 f7 cd bd df 03 8d 3e 5f c2 47 3e 89 2b fc be
       -0.10056998 0.27542016 0.1950774 -0.49251965
000060 4b 43 2d 3f a2 4f 97 be 8e 14 91 bc da b0 c3 3e
       0.67680806 -0.29552943 -0.017709997 0.38220865
000070 8c 4f d0 be 05 14 81 3a 0c 88 81 bf d6 a9 b7 3e
       -0.4068569 0.0009847885 -1.0119643 0.35871762
000080 6f fc a3 3e 68 1d d7 bd 91 9a 17 3e 7d 04 60 3e
       0.3202853 -0.10503656 0.14805056 0.21876712
000090 2c 01 81 3e c8 49 28 3e 97 f5 7d 3d ee 00 f1 3d
       0.25196207 0.16434395 0.06200179 0.117677554
0000a0 be 2f ed bd f2 4b 24 be 9c 39 0a 3d 0e 8b 05 bd
       -0.11581372 -0.16044596 0.033746347 -0.032603316
0000b0 11 a9 e5 be af 88 33 3e ca 47 04 3f 24 eb ef be
       -0.4485555 0.1753261 0.5167204 -0.46859086
0000c0 a9 a1 15 3d c6 c6 b1 bd ba 75 20 3e 71 68 3a be
       0.036531124 -0.08680491 0.15669909 -0.18203904
0000d0 ed 0f 17 bd e1 22 ce ba aa e2 3d be 98 42 b2 3e
       -0.036880422 -0.0015726947 -0.18543497 0.34816432
0000e0 15 dd a8 3e 75 97 c5 bd a5 93 59 3e df 83 1c bf
       0.32981172 -0.09648029 0.21247728 -0.6113872
0000f0 c6 f3 7a bd 0c 48 f2 3c 22 c4 01 be b7 ab 28 be
       -0.061267637 0.02957537 -0.12672475 -0.16471754
000100 4e 07 41 3d 96 90 83 3e 87 fc 8a 3e eb 73 ed be
       0.047126107 0.25696248 0.27145788 -0.463775
000110 ba 66 32 bf 70 0e 1c be 81 0e 40 3e a1 bb ad be
       -0.69688 -0.15239882 0.18755533 -0.33932212
000120 c2 a4 fe 3e aa 83 01 be e0 1b d3 3d d0 81 50 bd
       0.49735075 -0.12647882 0.10308051 -0.05090505
000130 91 42 39 3e 14 06 17 3e eb fe 9b bd 6e dd c6 bd
       0.180918 0.14748412 -0.07616981 -0.09710203
000140 dd 77 ac be 83 32 1f be 6a a2 d5 bd 2c c1 0b be
       -0.33685198 -0.15546612 -0.10431369 -0.13647908
000150 e7 77 fd be 32 29 25 bf 66 50 cd be d4 6a a2 3e
       -0.4950554 -0.64515984 -0.40100402 0.31722128
000160 49 3c 0c 3f 1b 25 b7 3e 85 f7 10 bf ea c7 ca be
       0.5477949 0.35770497 -0.56627685 -0.39605647
000170 8b 32 dd be 2f 1f cb 3d ef d0 6b 3d ef 89 1d 3e
       -0.43202624 0.09918057 0.0575723 0.15384649
000180 ea 16 02 3d f8 c7 96 3e 97 09 61 3e f2 5f 53 bd
       0.031760134 0.2944944 0.21976314 -0.051605172
000190 65 e0 a1 3e 28 d5 24 bf 8f ba ab 3e cb f7 e4 3d
       0.31616512 -0.6438775 0.3354077 0.11180075
0001a0 5c d1 c3 3e 66 e0 01 bf ff fe 64 3d df 89 7a 3d
       0.38245666 -0.5073303 0.055907246 0.06116664
0001b0 64 8a c5 bd f7 0c 5c 3e 98 9c 94 be 2c 71 f3 bd
       -0.096455365 0.2148932 -0.29025722 -0.1188682
0001c0 a0 be fa 3e b6 5a 57 bd df 45 e8 3e 94 86 25 be
       0.4897356 -0.052576743 0.45365807 -0.16164619
0001d0 19 2c 81 3e 83 da ce be 1e 78 b0 3e 0d c0 91 3e
       0.25228956 -0.40401086 0.34466642 0.28466836
0001e0 a2 5e 9b be e6 95 bb 3e 8e 82 4c be 2d 3f 0f be
       -0.30345637 0.366378 -0.19971678 -0.13988943
0001f0 d0 99 18 3f 0d ac 91 be 16 98 35 3c cc e2 f0 3d
       0.596097 -0.28451577 0.011083623 0.11762008
000200 07 6a 81 3e 54 b1 7d be aa 2a 43 3e f5 ff 8d 3d
       0.25276205 -0.24774677 0.19059244 0.069335856
000210 8b 09 05 3f 1b 53 c4 be ae 39 bd 3e d4 2b da bc
       0.51967686 -0.38344654 0.3695807 -0.026632227
000220 30 da b1 3e 04 03 b0 3e 12 0c 00 3f ff 7d c6 be
       0.34736776 0.343773 0.5001842 -0.38768002
000230 18 85 0e 3f ab 31 8e 3f 51 ba f1 3e 90 6f 95 3f
       0.55671835 1.1108907 0.4721246 1.1674671
000240 6c a6 2f be 2f b9 99 3f 8f 1d 39 3e 0f ee 6c 3e
       -0.17153329 1.2009639 0.18077682 0.23137687
000250 e4 d7 28 bf 03 aa 93 be c8 ba b4 3e c8 c1 a8 be
       -0.6595442 -0.28840646 0.35298753 -0.32960343
000260 4c 91 20 bf 24 23 66 3e 45 03 a8 bd 7e 7d 9d be
       -0.62721705 0.22474343 -0.082037486 -0.30759805
000270 67 d2 72 bf a0 ec c3 bc 21 1b a5 be 2e 9b 9b 3e
       -0.948523 -0.023916543 -0.3224726 0.3039183
000280 4b 43 e2 bd 21 fd c3 3d bd 3e 2c be 68 83 6e be
       -0.11047991 0.09569765 -0.16820808 -0.23292315
000290 c7 80 c4 be bb b9 4b 3e 0d f1 d8 bd f7 cd 0c 3f
       -0.383795 0.1989507 -0.10592852 0.5500178
0002a0 94 d0 38 3e 50 0d 9d bd 68 31 cf 3d ec 35 19 3e
       0.18048316 -0.07668555 0.10116845 0.14961976
0002b0 e2 fc f2 3e 4f 0a d3 be 9e c4 57 bd 70 b1 d8 3e
       0.4745856 -0.41218802 -0.052677743 0.42322874
0002c0 df 6a 03 3d ed e1 4b be 79 0f 16 3d 53 13 f4 3e
       0.032084342 -0.19910403 0.03663585 0.47670993
0002d0 94 57 8c 3e 92 7d 00 be 79 80 f5 bd b0 ad 24 3f
       0.27410567 -0.12547901 -0.11987395 0.64327526
0002e0 bf 25 e6 be 07 14 08 bf db bd 74 3e b7 8c ec 3e
       -0.44950673 -0.5315556 0.23900549 0.46201107
0002f0 61 33 12 bf ec 9e a9 bd 67 05 5a 3e 89 b1 e3 3e
       -0.5710965 -0.08282265 0.21291123 0.44471386
000300 77 f5 1e 3e 54 1c a2 3d df 47 ea be 85 88 1f 3f
       0.15523325 0.079155594 -0.45757958 0.6231769
000310 90 e2 d2 3e 9e 47 0b bf fd 55 56 be 99 0d 3e bf
       0.41188478 -0.54406154 -0.2093124 -0.742395
000320 ff 4e 85 3e f4 3b f9 3e df 2f bf be 9e 18 20 be
       0.26036832 0.48678553 -0.3734121 -0.1563439
000330 1b 82 26 be ae 33 dc be fe cf 05 3f 86 b8 55 3e
       -0.16260569 -0.43008178 0.52270496 0.20871171
000340 d9 cc e9 be dd fc 37 3e 7d 6b eb 3e 54 f0 e1 be
       -0.456641 0.17967553 0.45980445 -0.44128668
000350 4f 8f a5 3e d5 ec bd be 2e d7 e7 bd a7 18 98 3c
       0.32335898 -0.3709475 -0.11320339 0.018566443
000360 21 aa 97 3e 0b ae 93 be 23 f1 2f be c2 e7 9d bc
       0.29621986 -0.28843722 -0.1718183 -0.01927555
000370 48 7d 35 3f 79 5f 13 be e6 4f f5 3c 27 38 7b be
       0.7089429 -0.14391889 0.029945325 -0.24533139
000380 de 06 d8 3d f6 d9 f2 3d da 84 2a bd 49 27 8b 3c
       0.10548185 0.11857979 -0.041630603 0.016986506
000390 56 ff 08 3d bd 53 fe bc 14 e5 b9 3d 3e 11 49 bd
       0.033446632 -0.031045789 0.09076896 -0.04908871
0003a0 e9 f0 e9 be 54 25 8d 3e fe 29 fc 3e e1 11 84 be
       -0.45691612 0.27567542 0.49250787 -0.2579489
0003b0 c6 e9 f6 3e 14 36 b6 3e f1 ed bc be e0 e4 c1 be
       0.4822523 0.35588133 -0.36900285 -0.3786993
0003c0 6d 07 6d 3d 69 03 ec be 2f 4d 0c 3e 52 fa ee 3e
       0.05786841 -0.46096352 0.13701318 0.46675354
0003d0 af a4 63 3c 5c 49 18 be dd d7 d0 3e 4f 11 d8 bd
       0.013894244 -0.14871734 0.4078969 -0.10550176
0003e0 47 9e 7c 3e 04 83 2a 3e a6 a2 db 3d 15 e4 d8 bd
       0.24669753 0.16651541 0.10724382 -0.10590378
0003f0 54 4b 47 be aa 35 50 3f 1a 91 8a be 83 8f 5e 3e
       -0.19462329 0.81331885 -0.2706383 0.21734433

0.bias f4 [200]
000000 77 fd 37 bf eb 37 13 3f 53 51 c2 3e 39 c8 9b 3e
       -0.7187113 0.575072 0.3795267 0.30426195
000010 47 d6 2c 3f cb 82 f4 3d be dc bb 3e 57 75 c2 be
       0.6751446 0.11939009 0.3669185 -0.37980148
000020 69 18 09 bf 3a c8 fe bd bb d1 7f 3f d8 36 05 3f
       -0.5355287 -0.12440534 0.999294 0.5203681
000030 29 d3 de 3e a6 2b 93 bf 0b 48 cf be 65 d1 59 3f
       0.43520477 -1.1497695 -0.40484652 0.85085136
000040 30 10 e3 3d 8c 20 43 be 9c 0d e6 3e 2e 69 60 be
       0.11087072 -0.19055384 0.44932258 -0.21915123
000050 22 59 3c 3e eb 68 b4 be 0b 0b 96 3d 9f 0c 41 bf
       0.18393376 -0.35236296 0.07326325 -0.75409883
000060 dd 82 ad bf 8c 3a 37 3e 0c d6 91 3f d2 05 bc be
       -1.3555561 0.17893428 1.1393447 -0.3672319
000070 5e 4e f6 bd d7 ee 36 3e f5 9c 99 3e e3 eb 23 3f
       -0.12026666 0.17864548 0.3000256 0.6403181
000080 64 34 91 be f6 fc 39 bd fc e7 c3 3e e9 c9 22 3f
       -0.28360283 -0.045407258 0.38262928 0.6358934
000090 4c f6 30 bf f2 ad ab 3e 70 20 83 3e 35 96 8a be
       -0.6912582 0.33531147 0.25610685 -0.27067724
0000a0 99 55 2b 3f 62 fd 3e 3e 89 00 b7 be 61 ab fc 3e
       0.66927487 0.18651345 -0.35742596 0.49349502
0000b0 c9 7d 03 bf e1 48 29 3f 07 9a 90 3d a8 cb 86 bf
       -0.5136381 0.6612683 0.070606284 -1.0530901
0000c0 34 dd 0d 3f 36 35 df be c1 75 ce be b1 3b 0d 3f
       0.55415654 -0.43595284 -0.40324214 0.55169207
0000d0 e3 82 1d 3f 6e cc a3 3f f1 6a b7 3f f2 78 0b 3f
       0.6152784 1.2796762 1.4329511 0.5448142
0000e0 b9 56 ff be 20 b0 ff bd a4 e7 f0 3e 57 33 ab be
       -0.49870852 -0.12484765 0.47051728 -0.33437607
0000f0 60 94 2c 3f f4 4e 5c 3f 68 7c 33 bf d1 eb d7 3e
       0.674139 0.8605797 -0.70111704 0.421721
000100 94 94 2f bf 78 48 a3 be 95 0b a1 be 82 71 c1 3e
       -0.6858609 -0.31891227 -0.3145415 0.37781912
000110 4d 68 4a 3f 35 9c 2a 3f ab 32 95 be 60 73 a5 3e
       0.790654 0.66644603 -0.2914022 0.32314587
000120 24 f0 65 3f a5 4c 9e 3f 38 91 24 bd 03 00 ca 3e
       0.8981955 1.236714 -0.040177554 0.39453134
000130 47 c5 a7 3e 55 21 84 bf 08 c0 24 3e 80 a6 90 bd
       0.32767698 -1.0322672 0.16088879 -0.07063007
000140 be 44 21 bf de d7 81 bf f6 eb 63 be 0e 2c 44 3e
       -0.6299552 -1.0144002 -0.2225798 0.1915743
000150 d5 31 85 bf bf c0 bf 3e b5 71 06 bf ef 07 09 be
       -1.0405833 0.3745174 -0.52517253 -0.13381933
000160 06 c4 c5 bd d7 85 f0 be 02 ac ea be 8b 1d 8e bc
       -0.09656529 -0.46977112 -0.45834357 -0.017348072
000170 9a 8d 5e bf 16 74 d8 3e 76 09 6e bf 10 ad 12 be
       -0.86934817 0.42276067 -0.92983186 -0.1432383
000180 13 90 f2 bd d1 9a 68 bf 8e 0e 3b bf 27 f6 f2 3e
       -0.11843886 -0.9086123 -0.73069084 0.47453424
000190 46 b2 0c 3f 58 82 48 3c 70 cc a7 bd c3 df b4 3f
       0.54959524 0.012238108 -0.0819329 1.4130787
0001a0 f1 3c b7 be ce 27 ee be a9 f6 33 3f 82 2d 68 3f
       -0.35788682 -0.46514744 0.7029825 0.9069444
0001b0 e0 c4 87 bd 0a 7c 5f bf 83 0c 4d 3f a4 fb e1 3e
       -0.06629348 -0.87298644 0.80097216 0.441373
0001c0 7d 07 59 be d5 ff 15 bc 8d 7c ee bd 39 3e df be
       -0.21194263 -0.009155233 -0.1164485 -0.4360216
0001d0 02 58 63 be 8e ca 8b 3d 2e 61 ad be d7 3e 31 bf
       -0.22201541 0.068257436 -0.33863205 -0.6923651
0001e0 46 3f ce 3d 47 dc 5c bd c5 77 bf be c3 cf 13 bf
       0.10070662 -0.05392101 -0.37396064 -0.57738894
0001f0 ba 1b 86 bf d2 b3 61 be 6e eb 17 bd ba a2 f7 ba
       -1.0477211 -0.22041252 -0.037089758 -0.0018893101
000200 2a 14 06 bf d5 17 57 bf 9f 36 08 3d ac e4 22 bf
       -0.5237452 -0.8402074 0.033255216 -0.63630176
000210 0c 49 95 3f 39 fe b7 be 59 4e 5c 3c 6c 8c 62 be
       1.1662917 -0.35936144 0.013446414 -0.22123879
000220 34 6e 52 bf dc e8 3a bc b3 c7 4e 3f 03 00 51 be
       -0.82199407 -0.011408057 0.80773467 -0.2041016
000230 99 ce a5 be 65 9c 0f bf 0d 6e 8a bf da 8d 34 3e
       -0.32384184 -0.56098014 -1.0814835 0.17632237
000240 26 b1 cf 3d 8f cf 6f 3e d9 1f 03 3e bb 41 10 bf
       0.1014121 0.23419021 0.12805118 -0.56350297
000250 15 9c 7d bd a9 b5 86 be 51 ae aa be 6d db 43 be
       -0.06191643 -0.2631047 -0.33336118 -0.19126673
000260 2d 82 dd 3e fa 44 05 3e db b1 2b bf 3f ec 80 3f
       0.4326338 0.13014594 -0.6706826 1.0072097
000270 db 51 59 be 38 fa ec 3c bc bb 31 3f 93 dd 31 bf
       -0.21222632 0.028927907 0.69427085 -0.6947872
000280 52 f1 0e 3f 40 44 4e 3f 96 8e 75 3f 02 02 a5 be
       0.55836976 0.8057289 0.95920694 -0.32228094
000290 7f cb 6c 3f 3f 17 ce 3e 02 b3 94 3c c9 88 11 bf
       0.9249801 0.4025211 0.018151764 -0.5684934
0002a0 83 25 49 3f 69 fe a8 3e 6c c3 fb 3e 10 f2 60 3f
       0.78572863 0.330066 0.49172533 0.8786936
0002b0 e2 92 6f be b5 38 8d bf ec 7a 04 bf 9e d8 4a 3f
       -0.23395875 -1.1032931 -0.51750064 0.7923678
0002c0 ee 71 59 3f d9 d8 75 bf 6c 30 60 3f 2e be 4d bf
       0.8493947 -0.9603401 0.87573886 -0.80368316
0002d0 59 3c 42 bf b1 27 e9 be 12 f1 61 3f 1f d4 78 bf
       -0.75873333 -0.45538095 0.8825847 -0.9719867
0002e0 29 d2 7c be f7 cc 6c bf 03 a9 59 3f 9e 6b 55 3f
       -0.24689545 -0.9250025 0.85023516 0.83367336
0002f0 fa d7 37 bf 81 6b 1b 3f b4 10 3e 3f 3e 6f 2f bf
       -0.7181393 0.6071091 0.74244237 -0.6852912
000300 d9 9d 28 bf a5 36 7e 3e 85 57 c6 be ef c4 3a 3f
       -0.65865856 0.24825533 -0.38738647 0.72956747
000310 ba 40 d7 3d 9f 78 a0 3e 6d 91 65 be 50 21 7e 3e
       0.105103925 0.31342027 -0.22418757 0.24817395

2.weight f4 [200, 200]
000000 f2 97 b8 bc 8d 77 0b 3d 89 7b fd 3c 6f c1 ac bc
       -0.02253339 0.03404956 0.030942695 -0.02108833
000010 6b 0e 02 be 12 27 0b 3e c6 e0 14 3d 38 c8 a3 3d
       -0.12700813 0.13589123 0.036347173 0.07997173
000020 1c 7a 73 3d e8 db 04 3d 72 6f 10 3e fb 36 6e 3d
       0.059442624 0.03243628 0.14105013 0.058157902
000030 07 3f c9 3c f9 9d fa bd c7 67 82 3d d2 9b b9 3d
       0.024566187 -0.12237162 0.0636745 0.090629235
000040 6a c3 f2 bd 48 c3 8e bc 29 c6 9b 3d b0 13 e9 3c
       -0.118536785 -0.017427102 0.076061554 0.02845177
000050 77 a4 41 3d d1 06 7a bd e4 dc ba 3d 4a 2b 25 3d
       0.047275987 -0.061041657 0.09124163 0.040324487
000060 f4 56 3f be ee 93 82 3e 91 21 b8 3e 1c a1 20 ba
       -0.18685514 0.25503486 0.3596311 -0.0006127523
000070 bd e4 05 bd 4a 59 39 3e 10 78 2b be de 27 5f 3e
       -0.032688845 0.18100467 -0.16745019 0.21792552
000080 32 8e 06 3e 7a c5 3d 3e 62 8a b7 bd 31 9e 2b bd
       0.1314018 0.18532363 -0.08961941 -0.04189891
000090 55 24 18 bd 84 69 15 bd 8d ae e1 bb 0a d4 9b bd
       -0.037144024 -0.03647758 -0.006887263 -0.076088026
0000a0 d2 34 31 3c e9 67 b1 bd 0c 00 e7 3b 02 1d b3 3d
       0.010815816 -0.086623974 0.007049566 0.08745767
0000b0 f2 36 42 be e1 fb fc bc a8 11 13 bd ef 89 a9 3c
       -0.18966272 -0.030881824 -0.03590551 0.020695655
0000c0 84 12 6b bd a0 63 28 bc 2f 48 01 bd 06 9d 73 3e
       -0.057390705 -0.010277659 -0.03156298 0.23790368
0000d0 f1 88 0f bd 92 ae 9d 3e db dd 16 3e 37 6a d1 bd
       -0.035042707 0.3079725 0.14733069 -0.10225337
0000e0 da 65 fb bd 7f d1 9d 3d 5f 27 aa be be 79 a3 bd
       -0.12275286 0.07705974 -0.33233163 -0.07982205
0000f0 da 50 d4 bd 78 4f ea 3d 8b b5 d0 bd f2 52 0b 3e
       -0.10366984 0.11440939 -0.101908766 0.1360586
000100 f3 a6 7b bd c1 8e 9e bd e1 f6 ad bd 5e 0c df bd
       -0.061438512 -0.07742072 -0.08494354 -0.10891031
000110 13 c7 f5 3d 6e 10 0b be d5 56 8f bc ed 9d 34 3e
       0.12000861 -0.13580486 -0.01749746 0.17638369
000120 ad 1c 33 3e f4 fe 4f 3e 80 0b c7 bd bc d8 11 3e
       0.17491408 0.203121 -0.0971899 0.14242834
000130 31 5e c1 3d bd ef 91 bd f3 30 00 bd 7e 3c 23 3b
       0.09441794 -0.071258046 -0.03129668 0.0024907882
000140 5f c6 92 3c be dd f8 bd b8 7f a6 bb c3 52 cf 3d
       0.017916856 -0.12151669 -0.005081143 0.101232074
000150 c4 2d 23 3d d7 aa 56 3d f2 1d e3 bc 09 3c b5 3d
       0.039838567 0.05240902 -0.02772424 0.088493414
000160 8b aa 84 bd 90 93 45 bd e7 14 0d 3d 5f b5 17 3e
       -0.06477841 -0.04823643 0.034443762 0.14815281
000170 a2 57 84 bb ff 24 1c 3d ad a6 c0 bd 9f 8a 92 bd
       -0.004038767 0.03812122 -0.09406791 -0.07155346
000180 fd d4 b2 3d e6 96 e3 bc 70 46 05 3d 87 19 0f 3d
       0.087320305 -0.027781915 0.032537878 0.034936454
000190 b7 ca cf bd 56 79 36 3e e5 6b 8b 3c d7 42 68 3e
       -0.10146087 0.17819723 0.017019222 0.22681747
0001a0 05 2b a4 bd bf 5b bd bd ed 59 1f 3e 36 91 3a 3c
       -0.08016018 -0.09246015 0.15561648 0.01138716
0001b0 94 51 ff 3c a6 8b 4d be 92 64 bf bc 9b 06 6f 3d
       0.03116683 -0.20072803 -0.023363385 0.05835591
0001c0 1e ec b4 3d 37 77 6a 3d 7d 69 88 be a1 36 a4 bd
       0.08834098 0.0572426 -0.2664298 -0.08018232
0001d0 47 0d 79 bc 02 91 15 be 00 a5 22 3c cf fa 2d be
       -0.0152009195 -0.14606097 0.009927034 -0.16990207
0001e0 b9 9a b4 3d 11 dd c8 3d ea 4f b9 bc 6e a8 bf bd
       0.088185735 0.0980779 -0.022621114 -0.09358297
0001f0 b8 2e 3d be 5f 2b 31 be b2 08 71 3e 04 f5 b1 3d
       -0.18474853 -0.17301701 0.23538473 0.08689311
000200 7b 01 a2 3c 3e d3 0c 3c 03 f3 ca bd cd fa 6f be
       0.019776097 0.008595286 -0.09909632 -0.23435517
000210 c9 a8 d0 3d 5e 94 12 3e 59 a0 07 3c 48 fe 14 3d
       0.10188443 0.1431441 0.008277976 0.036375314
000220 fa fd 08 be f2 bd ba 3b a3 e3 16 3d c6 38 e1 bc
       -0.13378134 0.005698913 0.036838185 -0.027492892
000230 cb e3 49 bb b9 0a 7e bb 14 17 9c be ee 12 6b 3d
       -0.0030805941 -0.0038763715 -0.30486357 0.0573911
000240 be 54 c3 bd b4 3f 58 3d a3 42 c2 3c a7 88 3a bd
       -0.09537648 0.052795127 0.023713415 -0.045540478
000250 45 f8 a6 3b 79 a9 de bd 8b b9 a5 bd 99 92 80 bd
       0.005095514 -0.10872168 -0.0809203 -0.06277961
000260 5e c0 be 3c 09 e0 99 3c 90 1d f9 bd 97 06 45 3e
       0.023285087 0.018783586 -0.12163842 0.19240795
000270 ff de e0 3d ab a1 3d bc 2a 5c 31 3d c4 d3 b3 bd
       0.10980033 -0.011574189 0.043300785 -0.087806255
000280 c4 91 d0 bd 75 b4 48 3d ca 00 79 3c 16 18 c9 bd
       -0.101840526 0.049000222 0.015197942 -0.09819047
000290 17 34 3e 3d 5d 09 0e ba 43 99 5a bd b4 6b 8e bd
       0.046436395 -0.00054182654 -0.053368818 -0.069541365
0002a0 cb 96 93 3d bc 73 20 be b3 a0 58 3e 6d 3c 10 3d
       0.07206496 -0.15669149 0.21155052 0.035213877
0002b0 a2 e7 5b bd 51 29 66 be 0e 30 cd bd a1 be 16 bd
       -0.0536877 -0.22476698 -0.10018931 -0.03680289
0002c0 76 d8 03 3e f8 54 00 be 21 d1 9f 3e 00 f5 30 3d
       0.12875542 -0.12532413 0.3121424 0.0432024
0002d0 68 33 6a be 18 32 03 bd 36 c9 9e 3d b5 98 6d 3c
       -0.22871172 -0.032030195 0.07753222 0.01450174
0002e0 c0 80 66 bd 50 74 7d bd 9e 40 61 3d 83 96 94 bd
       -0.05627513 -0.061878502 0.054993264 -0.0725527
0002f0 86 c4 84 bd 36 9e 64 3d 90 c4 d4 ba 20 67 a2 bc
       -0.06482796 0.055814944 -0.0016232897 -0.019824564
000300 8d a5 d0 bd ad 35 05 3e a8 21 15 bd 6d 15 35 bd
       -0.10187826 0.13008757 -0.03640905 -0.044209886
000310 40 93 55 bd cb 00 a0 bd 50 02 7d bc 94 ae b3 3d
       -0.05214238 -0.07812651 -0.015442446 0.087735325
000320 cf b5 19 be 33 f1 14 bd 2c 90 31 be 39 98 c4 bd
       -0.1501076 -0.036362838 -0.17340153 -0.09599347
000330 54 1e 02 bd 5d 6c 33 be cd e1 10 3d 8b 8a 57 3c
       -0.031767204 -0.17521806 0.03537159 0.01315559
000340 ad 43 c0 3d 0e ac 16 bd bc 7e 18 be 51 3c f8 bd
       0.09387908 -0.036785178 -0.14892095 -0.121208794
000350 33 97 b8 bd 18 1f 2a bc 62 5b 3d 3d 2b fe dc bd
       -0.09013214 -0.01038339 0.046229728 -0.10790666
000360 26 58 37 bd 3b 96 bf bd d0 2f 0c 3e ca 7b 19 3e
       -0.0447618 -0.09354826 0.13690114 0.14988628
000370 37 66 94 bc 99 ae 7a bd 11 16 81 3b e7 09 dd 3c
       -0.018115146 -0.061201666 0.003939398 0.02698226
000380 55 02 52 bd af b3 27 be 54 61 5e 3d 07 1a 76 bd
       -0.051271755 -0.16377138 0.054292038 -0.060083415
000390 ad 05 85 bd 53 74 01 bd 61 58 f5 3d c9 8f ad bd
       -0.06495223 -0.031605076 0.119797476 -0.084746905
0003a0 5c 27 1b bd 6e 96 1a be 48 cf 03 3e 32 2b b1 3c
       -0.037879333 -0.15096447 0.1287204 0.021627042
0003b0 c9 71 82 bc 3f fe e1 bd 7f 66 13 3c 08 ea 84 bd
       -0.015923398 -0.11034822 0.008996605 -0.064899504
0003c0 bf 7c 23 bc 11 0c b3 3d 76 68 ed 3d 43 15 38 3e
       -0.009978472 0.08742536 0.1159219 0.1797686
0003d0 d0 23 0a 3d fe 0a 11 be ae 88 5f bd f4 bc ad 3d
       0.03372556 -0.1416435 -0.054573707 0.084833056
0003e0 2e 83 0e 3e 6c c4 e0 bc 61 d5 0c 3e c3 b9 31 3d
       0.13917229 -0.027437411 0.13753273 0.043390047
0003f0 ac 8b 34 bd 07 7f c4 3d b5 54 9a 3d 63 eb 11 3d
       -0.044078514 0.09594541 0.07535688 0.035624873

2.bias f4 [200]
000000 c2 c2 9b 3c 3e 82 83 3d 4b db 5f 3d 49 a8 b7 3c
       0.019013766 0.06421326 0.054652493 0.022419112
000010 3a 69 90 bc 54 c4 3a bc 58 ae 1c 3a d8 b4 a1 3c
       -0.017628301 -0.011399347 0.0005976907 0.019739553
000020 ca b3 52 bd 83 6d 0a 3c 82 a3 53 3d 1f 67 0a ba
       -0.05144099 0.008448961 0.051669605 -0.00052796485
000030 1e 1b 2d 3d 0d 08 53 3c cc 01 11 bd dd 7e f5 3d
       0.04226219 0.012880337 -0.035402104 0.11987088
000040 5f e2 8a 3d 76 e4 8d bc c2 a9 69 3d 63 9d 3d bd
       0.06781458 -0.017320853 0.05704666 -0.046292674
000050 f7 f6 8a bd 31 54 8e 3d 51 e1 5f bd 51 5c 25 bd
       -0.06785386 0.06949652 -0.054658238 -0.040371243
000060 19 8f d9 bc e2 cf 89 bd c0 2b b7 3d 77 55 a8 3d
       -0.026557492 -0.067291036 0.089438915 0.08219426
000070 ae 48 96 3d d1 e9 b5 3c b6 f4 53 3d c0 2c aa 3d
       0.07338081 0.022206219 0.051747046 0.08309317
000080 cd c9 30 bd 8e 7f c9 bd b8 0e d5 bd a7 37 3d 3c
       -0.043161202 -0.09838782 -0.10403198 0.011548913
000090 71 cb 4e bd b4 84 24 bd 0b b2 71 bd d8 be a5 bd
       -0.050486986 -0.040165618 -0.059007686 -0.08093041
0000a0 be d1 7d 3b f0 d7 f0 ba c4 ab 33 3d 77 ec 23 bc
       0.0038729752 -0.0018374901 0.04386498 -0.010005108
0000b0 44 a2 15 bc 5a fa a9 3d 10 b5 d4 3c 97 ee 0b bc
       -0.009132925 0.08299704 0.025965244 -0.008540771
0000c0 f0 14 12 bc 47 a6 27 bd f8 63 55 3c c8 71 0a 3d
       -0.008916125 -0.04093006 0.013024323 0.033799917
0000d0 2d 9a 58 bd 56 67 38 bd 78 18 16 3d ba e3 44 bd
       -0.05288141 -0.045020424 0.03664443 -0.04806874
0000e0 47 37 69 3d f7 1f 0e bd f7 9f 3f bd 30 4d de 3c
       0.056937482 -0.034698453 -0.046783414 0.027136415
0000f0 82 96 99 3c c8 5d 5d 3d 76 8b 13 bd 40 22 cd bc
       0.018748526 0.054044515 -0.036021672 -0.025040746
000100 33 63 f1 bc 1a 2d 7c 3b 7f 1f c6 bd 15 99 55 bd
       -0.029466247 0.003847903 -0.09673976 -0.052147944
000110 90 59 18 3c 48 45 64 3d c8 70 94 3d ad 1b 34 bd
       0.009298697 0.055730134 0.07248074 -0.043971706
000120 db 4f a2 bd 84 83 75 bd e9 4b 22 3d 31 f9 4b bd
       -0.079253875 -0.059939876 0.039623175 -0.049798194
000130 7e 25 4b 3d ad 2f 74 bd 83 ad 59 3d f4 c0 e6 3c
       0.049596302 -0.05961578 0.05314399 0.02816818
000140 06 8e 9b bd a9 42 84 bd 79 b3 8a 3d e8 d5 dd bd
       -0.07595448 -0.06458027 0.06772513 -0.10831815
000150 9a b5 e5 3b 2c 99 4f bd ac cf 97 bc 7d 04 72 3d
       0.007010174 -0.050683185 -0.018531643 0.05908631
000160 2a f8 56 3d 3e 41 90 3c 03 a9 1d 3e 7c c3 31 bd
       0.05248276 0.017609235 0.15396504 -0.04339932
000170 56 3c 58 3b 3e c8 9f bd 7f f8 ff bc bb 48 84 3d
       0.0032994947 -0.07801865 -0.031246422 0.06459185
000180 c9 77 bc bc 01 4b 6d 3d 09 de 18 bc b6 6e 38 3d
       -0.023006337 0.057932857 -0.009330281 0.045027457
000190 2d 56 bd bb e9 d7 11 bd 63 75 29 bd 8e 32 e3 3d
       -0.005778095 -0.0356063 -0.041371714 0.11093627
0001a0 6c 9f 45 bd 7e 3c a3 bd bb a5 77 3c 1b 07 19 3d
       -0.04824774 -0.07970522 0.015115197 0.037360292
0001b0 14 3b 87 3d 99 02 64 bb f9 53 d9 3b 59 81 48 bc
       0.06603065 -0.0034791587 0.006632325 -0.01223787
0001c0 2b 58 b6 3c ab 72 07 3d 6e a7 a3 3c f9 1e 97 bd
       0.022258839 0.03306834 0.019977298 -0.073789544
0001d0 ae 3b 8d 3c 2c 21 46 3d 4d 86 c3 bc 53 fb 77 3d
       0.017240372 0.04837148 -0.02386775 0.060542416
0001e0 5b 17 c9 bd 72 cd 15 bd ac 64 2f 3d c6 81 67 39
       -0.09818908 -0.03657288 0.042820618 0.00022078221
0001f0 79 00 e9 3c 1e 4d 4e 3d 35 b8 ed bd 5d b6 b6 3c
       0.028442608 0.050366513 -0.116074 0.022303754
000200 e4 2c 8f 3d 27 8c 52 3c 8e 4a 57 bc b4 2d 19 3c
       0.06990984 0.012850798 -0.013140334 0.009349275
000210 d5 70 14 3d b0 95 3e bc cc 28 47 3c d6 51 95 bd
       0.036240418 -0.011632368 0.012155723 -0.072909996
000220 d2 af 0f bd 56 23 25 3d 53 4a 46 bd 4d 38 26 3d
       -0.035079785 0.040316902 -0.048410725 0.040581036
000230 6b d2 9c 3a 3d 2d 6d 3c 44 bf 5c bd 89 22 73 3d
       0.0011964565 0.014476118 -0.053893343 0.059359107
000240 7f b2 be bc 5d 97 c6 3c 81 e6 b8 3c fa a4 8b ba
       -0.023278473 0.024242098 0.02257085 -0.0010654025
000250 71 0b 28 3e 9c 0c 5f bd 8b 0b 0d bd 64 a5 de bc
       0.16410615 -0.054455385 -0.034434836 -0.027178474
000260 3f 8d 30 bd 9d 35 1b 3d 59 f1 1e 3d 9c 78 85 bd
       -0.043103453 0.037892926 0.038804386 -0.06517145
000270 9d 4c 0a 3d df 2e 01 3d fe 15 9b 3c 95 6e d3 3c
       0.03376447 0.03153884 0.018931385 0.025809566
000280 9b 02 44 3d 56 93 64 3d f8 e6 f3 3c 1a 71 0b bd
       0.047854047 0.055804573 0.02977322 -0.03404341
000290 6e 20 43 bb 9f 68 4a 3b 2f a9 ce bc 07 5a b2 3d
       -0.0029773968 0.0030885113 -0.025227157 0.087085776
0002a0 bf b0 b1 bc 6b 48 10 3d 01 7d 2d bd 40 17 19 3d
       -0.021690724 0.035225313 -0.04235554 0.03737569
0002b0 a4 ef 4d bd f1 d9 1b 3d eb 74 02 3c 07 4b b1 3c
       -0.050277367 0.038049642 0.007962446 0.021642221
0002c0 db 63 8e 3d 82 4c 95 bd 0a 26 b8 3d dc a9 11 3c
       0.0695264 -0.07289983 0.089916304 0.008890595
0002d0 d3 d0 cd bc fe f0 23 3d c0 50 93 bd ec 47 3e bc
       -0.02512399 0.04002475 -0.07193136 -0.011613827
0002e0 3f 10 51 bd 26 0a 92 bd 9b 70 0f bc 19 20 75 3c
       -0.051040884 -0.07130842 -0.008754875 0.014961266
0002f0 ab 8b 0a 3b 16 f1 d1 3b c6 60 26 bd 34 5a 09 3d
       0.0021140378 0.0064069135 -0.040619634 0.03353329
000300 34 85 8e 3d e4 27 b5 bd 3e f1 a3 3d 49 81 2b bd
       0.06959 -0.08845499 0.08004998 -0.041871343
000310 dd 70 51 3d 3b d4 e0 39 71 0a aa 3d 79 d5 5d 3c
       0.051133025 0.00042882733 0.08302773 0.013539665

4.weight f4 [4, 200]
000000 7b 5f a2 bd f1 84 9e bd 24 9e 09 3d de f6 b0 bd
       -0.07928368 -0.077402 0.03359808 -0.08640836
000010 7f 33 a2 3d ea 9c 65 b9 97 2a 10 bc ea 2f b1 3c
       0.07919978 -0.00021897597 -0.008799217 0.021629293
000020 78 f9 72 3a ee a2 33 bd ce 15 07 bb 80 87 fe 3c
       0.0009268741 -0.043856554 -0.0020612362 0.03107047
000030 9a 31 80 ba 4e 23 34 3d ba 70 76 39 8d ba f7 bd
       -0.0009780407 0.04397898 0.00023502382 -0.120961286
000040 bf 83 63 3a 6f 09 f1 39 e1 4d b7 ba 9d 2a a8 3c
       0.00086789945 0.0004597413 -0.0013985002 0.020528132
000050 80 c2 d9 ba 8c 0f 96 bd 2b 91 81 bc 64 87 4e b9
       -0.0016613752 -0.07327184 -0.015816292 -0.00019696128
000060 f1 20 bc 3d c3 f4 6b bd d3 aa e1 3d 53 16 98 bc
       0.091859706 -0.05760647 0.1101891 -0.018565333
000070 ec 91 b2 3b ff 9e 8e 3a 54 2b 8c bd 5d 2a ed 3d
       0.005449524 0.0010881125 -0.06844202 0.11580346
000080 3e 4e 3b 3a 39 70 3c 3d 1f 95 43 3e 8f 1f 19 3a
       0.0007145143 0.04600546 0.19099854 0.00058411894
000090 2d 6d d4 3c b2 0c 4c b8 3d 76 cf bd 6b 39 44 be
       0.025930965 -4.8649214e-05 -0.10129974 -0.19162528
0000a0 50 7f f5 3d e9 3a 1e be 81 b4 d9 bc a9 8b 0a bd
       0.119871736 -0.1545216 -0.026575329 -0.033824597
0000b0 9e 1e b0 ba f8 ad bd bd e7 f1 66 ba 91 4f 8c bc
       -0.0013436859 -0.092616975 -0.000880985 -0.017127784
0000c0 42 69 3b b9 eb e3 ff b7 19 00 ed ba 52 0a 34 3a
       -0.00017872921 -3.0504501e-05 -0.0018081694 0.0006867993
0000d0 4b d7 10 3e 18 32 94 3d bd 0c 7b 3a 6a 11 a7 3c
       0.14144628 0.07236117 0.0009576788 0.020394046
0000e0 4d ed c4 39 b7 32 c5 3a 85 cb a9 bb c5 78 31 3a
       0.00037560836 0.0015045021 -0.005181732 0.000677001
0000f0 7b 88 b5 3d 99 e6 e8 3d f6 09 0a be 39 c4 f8 ba
       0.08863922 0.11372108 -0.13480362 -0.0018979377
000100 cd 7a a9 ba df 51 d4 b9 2f 87 4e be 65 5a b0 39
       -0.0012930274 -0.0004049679 -0.20168756 0.00033636685
000110 92 04 c8 3c 85 ae 6a b8 97 db 8a 3d ff d1 e8 bd
       0.024416242 -5.595248e-05 0.06780165 -0.113681786
000120 e3 d0 cd 3a 0b 88 6f 3a df 3d 33 3b be 74 d6 bb
       0.0015702512 0.00091373984 0.002735011 -0.0065446785
000130 bb e2 97 3a a3 e4 2c be 19 2f 96 b9 03 53 ab 3d
       0.0011587957 -0.16884093 -0.0002864532 0.083654426
000140 f1 a7 89 bd b5 b0 1f bd 36 bf 43 3a 07 08 66 3d
       -0.067214854 -0.03898688 0.00074671523 0.05616
000150 aa 33 0f 3d b3 b7 29 bd d2 c3 28 bb 09 23 67 ba
       0.03496138 -0.041434955 -0.0025751484 -0.00088171713
000160 33 dd c1 b8 df 21 0b bd 42 c2 b6 bd 65 df 90 b9
       -9.244159e-05 -0.03396785 -0.089237705 -0.00027632262
000170 e7 02 c6 3a 5a 0e fa bc ca 69 57 3a 8a 02 97 3a
       0.0015107066 -0.030524421 0.0008217363 0.0011521142
000180 7b 15 62 39 7f 36 b3 b9 2f 62 0b b9 8a 61 28 bc
       0.00021561042 -0.00034182143 -0.00013292649 -0.010277161
000190 0c 0c 9a 3d ba b0 a4 b9 9c b9 27 3e f7 b8 08 bd
       0.07521829 -0.0003141219 0.16379398 -0.03337952
0001a0 7c b2 49 38 ad e4 7f 3d b5 53 82 39 2e 6a 85 ba
       4.808836e-05 0.06247394 0.000248579 -0.0010178739
0001b0 68 67 0c 3e 47 7a 56 3a b5 a4 c2 3d d2 73 ff 3a
       0.13711321 0.0008181673 0.095040716 0.0019489473
0001c0 62 79 92 3d e2 01 7f 3a 79 31 2b 3c 43 d5 39 bd
       0.07152058 0.00097277586 0.010448807 -0.045369398
0001d0 de b3 93 bd b4 eb 2f 39 41 c2 8b 3a 51 2b 3d 3d
       -0.07212041 0.00016777107 0.001066275 0.046183888
0001e0 e4 77 85 bd 21 d4 bf bc 34 ca 79 ba 58 ea c6 3c
       -0.06517008 -0.02341658 -0.0009528727 0.024281666
0001f0 72 d4 d5 bd 41 3e a9 ba 37 49 cb 3b 81 b4 11 bc
       -0.10440911 -0.001291223 0.0062037962 -0.008893133
000200 56 6a 26 3d 73 9d cb ba e9 da 95 bd 7a f3 66 bb
       0.040628754 -0.0015534594 -0.073171444 -0.0035240338
000210 15 5d b6 37 6c 0e d3 3a 6f f9 79 3a b4 ab 4a 3d
       2.1739435e-05 0.001610232 0.00095357647 0.049480155
000220 50 99 cf bd 6f 1c a4 bc 45 83 3f b9 4e 3c c7 3b
       -0.10136664 -0.02003309 -0.00018264081 0.006080187
000230 6f aa c8 3c a8 ee 62 bc cb c8 0a 3d 6c 51 8f bc
       0.024495332 -0.013850845 0.033882897 -0.01749488
000240 0e 2f 0a be 82 66 69 bd 9e d3 46 ba 77 96 a2 3a
       -0.13494512 -0.056982525 -0.0007584634 0.0012404461
000250 2e 48 17 be 95 97 1c b7 35 db e8 3a 1c 7a 31 3a
       -0.14773628 -9.3336175e-06 0.0017765524 0.000677021
000260 96 ae f3 bc e9 4d 14 3e 0f 48 ac bd da a0 69 3d
       -0.029746335 0.14482845 -0.084121816 0.057038166
000270 e5 b3 76 bc 80 b2 1d 3d e5 4f b0 3b 21 bb f4 3a
       -0.015057539 0.03850031 0.005380618 0.0018671491
000280 99 7a 19 bc 95 59 81 ba 7f 8a 0d ba 89 ae 89 bd
       -0.009367608 -0.0009868616 -0.00053993607 -0.06722743
000290 37 93 81 3b 0f ab 08 3e b5 15 39 ba 21 84 fb ba
       0.003954317 0.13346504 -0.00070604245 -0.0019189158
0002a0 96 51 90 3a e8 3e 15 bb c4 c9 90 3d 73 57 91 ba
       0.0011010643 -0.002277309 0.07069734 -0.0011088684
0002b0 63 93 d2 ba bd 45 41 bd fb 9c 40 ba 80 30 21 3d
       -0.0016065653 -0.04718565 -0.00073476107 0.039352894
0002c0 29 d6 a1 bd f7 33 5e 3e 36 e7 80 3d 17 b5 87 b9
       -0.07902176 0.2169951 0.062941 -0.0002588413
0002d0 66 36 62 3d ab 9e 4c bc 48 dc 58 3d be 79 c7 b9
       0.05522766 -0.012489001 0.05294445 -0.00038046943
0002e0 c5 e7 ac ba 04 ec b4 bc cd e6 9f 3a bf 8d 00 ba
       -0.0013191631 -0.022085197 0.0012199521 -0.00049039343
0002f0 1d b2 b0 bd 3d f4 9f 3a c2 97 23 ba a9 4c 47 3d
       -0.086277224 0.0012203526 -0.000624057 0.048657093
000300 4b 8c da 3d 79 cf 8e 3d b5 50 33 be 7b 1a 80 ba
       0.1067129 0.06973166 -0.17511256 -0.0009773517
000310 73 8c ac 3d f0 9d 83 bd ab 93 5c bd 64 c1 ac 3b
       0.08425226 -0.064266086 -0.053851765 0.0052720774
000320 e3 4f 15 be d5 5e b1 3c a5 44 b3 3c e9 8e ba bd
       -0.14581256 0.021651665 0.021883318 -0.09109289
000330 2d 80 e7 3d ce 89 75 b9 19 b7 3a bd 5c 9d 5d 3d
       0.113037445 -0.00023416357 -0.04558477 0.054105148
000340 43 e8 0e 39 0c 4b 92 3c e7 c1 c5 39 e7 38 b5 3c
       0.000136287 0.01785805 0.00037719237 0.02212186
000350 c4 d2 d6 39 22 ee 53 3d 68 1a 12 b7 ef 78 85 bd
       0.00040974293 0.051740773 -8.708426e-06 -0.06517207
000360 be d2 5d ba 60 10 97 3a 0a 9b 26 ba 1a b2 29 3d
       -0.0008461884 0.0011525266 -0.00063555 0.041429617
000370 4c b7 92 ba 62 62 b9 bb b0 12 29 bc 56 28 27 3a
       -0.0011193543 -0.00565748 -0.010319397 0.0006376555
000380 0b e0 83 3d c6 89 62 bd 03 43 15 3e c2 fa 6f bd
       0.06439217 -0.055307172 0.14576344 -0.05858875
000390 29 6c 23 3d 8e 1b d1 bc 34 0b 00 be 47 14 cb 3d
       0.03989807 -0.025525834 -0.12504274 0.09915977
0003a0 3e 0b de 3a a3 b8 8c 3d 3d 35 43 3e 97 32 ed 3a
       0.0016940606 0.06871154 0.19063278 0.0018096742
0003b0 7e f9 34 3c 12 8c a6 b9 9f ef 8a bd 6e 99 17 be
       0.011045812 -0.00031766348 -0.06783985 -0.14804623
0003c0 07 37 1a 3e 14 5a d8 bd e0 23 07 3d c1 e4 22 bd
       0.15060054 -0.10564056 0.032993197 -0.039768938
0003d0 fc 49 cb 3a e3 b0 63 bd a8 e8 ad ba c3 4d 04 bd
       0.001550972 -0.055588614 -0.001326819 -0.03230072
0003e0 4a a5 fe 3a f0 d0 66 3a af 85 2b 3a c9 d6 29 bb
       0.0019427922 0.0008804938 0.0006543053 -0.0025915375
0003f0 71 24 08 3e 73 86 83 3d f7 9f bc b9 99 74 99 bc
       0.13295151 0.064221285 -0.00035977337 -0.018732356

4.bias f4 [4]
000000 ee 77 29 3d 88 fd 9e bd 46 19 9f bd 90 9f ad 3c
       0.04137414 -0.07763201 -0.077684924 0.02119425
